app/src/main/assets/converted_model.tflite (tflite, 931796 bytes, 10 tensors)

StatefulPartitionedCall/sequential_1/conv2d_1/Conv2D/ReadVariableOp f4 [1, 3, 3, 32]
0	0x3cb9d656	0.022685211
1	0x3ca5c058	0.020233318
2	0x3d5385f1	0.05164141
3	0xbd81cf18	-0.06338328
4	0xbdbf2625	-0.09333447
5	0x3d7d5bad	0.061855007
6	0xba6c3e4b	-0.0009011968
7	0x3e0c2a43	0.13687997
8	0xbd830c78	-0.063988626
9	0xbe122246	-0.14270887
10	0x3dbc83f8	0.092048585
11	0xbcbeefae	-0.023307648
12	0x3d8e78f7	0.06956666
13	0xbde957b0	-0.11393678
14	0x3d69bd72	0.057065435
15	0x3da7a610	0.08185971
16	0xbd698ced	-0.057019163
17	0xbe1ce310	-0.15320992
18	0x3e0c08e6	0.1367527
19	0xbc0be923	-0.008539471
20	0xbc8a80af	-0.016907064
21	0x3b4ac8ed	0.0030942515
22	0x3d193432	0.037403293
23	0xbd28e092	-0.041229792
24	0x3e3a4c0d	0.18193074
25	0xbe04f753	-0.12984972
26	0xbb96a546	-0.004597339
27	0xbd37ecb5	-0.044903476
28	0x3e1e2506	0.15443811
29	0x3de938b2	0.11387767
30	0x3d13688b	0.03598837
31	0x3de4522d	0.11148486
32	0xbdc1a490	-0.09455216
33	0x3d4f2c9d	0.050579656
34	0x3d715473	0.058918428
35	0x3c9dfa64	0.019284435
36	0xbe001aa2	-0.1251016
37	0x3a510ecb	0.00079749216
38	0x3e20a5c6	0.15688238
39	0xbd803142	-0.06259395
40	0xbdb4dc92	-0.08831133
41	0x3d8f8a71	0.070088275
42	0xbdbb39e1	-0.09141899
43	0x3e17af37	0.14812933
44	0x3da2a68b	0.07941922
45	0x3dec9875	0.11552516
46	0xbd61af99	-0.055099104
47	0xbcf234d7	-0.029566212
48	0xbbf1ec30	-0.007382892
49	0x3e1f0712	0.15530041
50	0x3d1c3765	0.038138766
51	0xbde9736f	-0.1139897
52	0x3dffcc35	0.12490121
53	0x3d8f25ae	0.06989609
54	0xbde0d677	-0.10978406
55	0x3e0d420f	0.1379473
56	0x3c3f5e8c	0.011680257
57	0x3db33dc6	0.08752017
58	0x3d50eff8	0.051010102
59	0xbe1c3e2e	-0.15258095
60	0x3e05eb9d	0.1307816
61	0x3d746fcf	0.05967694
62	0x3ccab258	0.024743244
63	0xbcd47745	-0.025935778
64	0xbde5bf41	-0.112181194
65	0x3e235727	0.15951215
66	0x3c7b0caf	0.015322848
67	0x3d28f39d	0.041247953
68	0xbc99189c	-0.018688492
69	0xbe0cd21f	-0.1375203
70	0x3e11b96e	0.14230892
71	0x3d97ebad	0.074179985
72	0xbdc29851	-0.09501708
73	0xbd062465	-0.032749552
74	0xbd809426	-0.06278257
75	0x3cbf5e96	0.023360532
76	0xbc8f9696	-0.01752786
77	0x3e14dbaa	0.1453692
78	0xbbfcd2a2	-0.007715539
79	0xbe0af881	-0.13571359
80	0xbdaf10b5	-0.085481085
81	0x3a89d31b	0.0010515185
82	0xbd04b8dd	-0.032402862
83	0xbdecffa3	-0.11572196
84	0x3d46c061	0.04852331
85	0xbc0522fc	-0.008126017
86	0xbd91c99f	-0.07118534
87	0xbdc7d711	-0.097578175
88	0x3e181dc7	0.14855109
89	0xbcde1b47	-0.027112616
90	0x3dd82579	0.10554022
91	0x3de34c96	0.11098592
92	0x3d823507	0.063577704
93	0xbd44a362	-0.048007376
94	0xbe0b7090	-0.13617158
95	0xbdf429aa	-0.11922009
96	0x3e181e56	0.14855322
97	0xbd8e0854	-0.06935182
98	0x3dfccb67	0.123434834
99	0xbd880783	-0.06642058
100	0x3e192b7e	0.14957997
101	0xbe25a980	-0.1617794
102	0xbe0223ab	-0.12708919
103	0x3e0147b1	0.12625004
104	0xbd59d5c8	-0.053182393
105	0x3d5db292	0.054125376
106	0xbd9f4ab0	-0.077779174
107	0xbdb03476	-0.08603756
108	0xbdd48177	-0.10376256
109	0xbd4a0d89	-0.049329314
110	0x3da05e24	0.07830456
111	0xbd902c02	-0.07039644
112	0xbe1bf287	-0.15229236
113	0xbdc62965	-0.09675864
114	0x3da9db0f	0.08293735
115	0x3d56b629	0.052419815
116	0xbd6ae1fb	-0.057344418
117	0xbe46f2d8	-0.19428575
118	0xbde942e4	-0.113897115
119	0xbe0f5cdf	-0.14000271
120	0x3d8fb9f9	0.07017893
121	0x3dd918d0	0.10600436
122	0x3ca24875	0.01980994
123	0x3d983fc9	0.07434041
124	0x3e23921b	0.15973704
125	0x3a24c4df	0.00062854396
126	0xbd85bdd0	-0.065303445
127	0x3e11434c	0.14185828
128	0xbd9c0ec1	-0.076200016
129	0xbe0d999d	-0.1382813
130	0x3d2cd793	0.042197775
131	0x3e102f8e	0.1408064
132	0x3d1a64a3	0.03769363
133	0x3e09521b	0.13410227
134	0x3d0ccf30	0.034377277
135	0x3ddf6229	0.109073944
136	0x3dcdf1e0	0.100558996
137	0x3d7ed520	0.06221497
138	0xbd9031e4	-0.07040766
139	0x3da9228f	0.08258545
140	0xbdcc302d	-0.09970126
141	0x3e23b3c9	0.15986551
142	0xbe0bf477	-0.13667475
143	0xbd9c2cd4	-0.07625738
144	0x3dd7eda0	0.1054337
145	0x3dddd349	0.10831315
146	0x3dce8409	0.100837775
147	0x3a05021a	0.00050738605
148	0x3db4d267	0.088291936
149	0x3e17c684	0.14821821
150	0xbcf24681	-0.029574635
151	0x3de2da81	0.110768326
152	0xbdbd640b	-0.09247597
153	0x3dfa4124	0.12219456
154	0xbdce816d	-0.1008328
155	0x3db740c9	0.08947904
156	0xbdd37e2b	-0.10326799
157	0x3e044557	0.12917076
158	0x3d8cf792	0.06883158
159	0xbb0c274e	-0.0021385732
160	0xbd8ce918	-0.068803966
161	0xbcf52d6a	-0.029928882
162	0x3dd21d94	0.10259548
163	0xbda6c802	-0.08143617
164	0xbd0a0822	-0.033699162
165	0x3dd4b2f5	0.10385696
166	0xbae71cd3	-0.0017632492
167	0x3e0a37df	0.13497876
168	0x3e227943	0.1586657
169	0x3d943695	0.07236973
170	0xbd60587e	-0.054771893
171	0xbd82c385	-0.06384949
172	0x3d930a81	0.07179738
173	0x3da1bbcd	0.07897148
174	0x3de9dd6a	0.114191845
175	0xbe084954	-0.13309222
176	0x3cf25db6	0.0295857
177	0x3deae316	0.114690945
178	0xbde44732	-0.11146392
179	0x3e15f688	0.14644825
180	0xbd8e0a78	-0.069355905
181	0x3d8e9666	0.0696228
182	0xbd419328	-0.04725948
183	0x3e069b1f	0.13145112
184	0x3e09face	0.1347458
185	0x3dddfc8c	0.10839185
186	0x3d2c92ca	0.042132176
187	0x3e0bf1b3	0.1366642
188	0xbc71e575	-0.0147641795
189	0xbd89cf81	-0.06729031
190	0x3cb80329	0.022462444
191	0xbe0c937a	-0.13728133
192	0x3e1e2959	0.1544546
193	0xbe1c117a	-0.15241042
194	0xbe089546	-0.13338193
195	0xbd46d7e7	-0.048545744
196	0x3d314fab	0.043288868
197	0x3d219774	0.039451078
198	0x3d4e6ca4	0.050396577
199	0x3d377185	0.044785995
200	0xbd7f6d94	-0.06236036
201	0xbe18a394	-0.1490615
202	0x3dc9a1a0	0.09845281
203	0xbe0bc331	-0.13648678
204	0xbe003fcb	-0.12524335
205	0xbe2ec5b7	-0.1706761
206	0xbc8f5688	-0.017497316
207	0xbc510c00	-0.012759209
208	0xbd828188	-0.063723624
209	0xbdb8894d	-0.09010563
210	0xbda0957c	-0.07841012
211	0x3daf2db6	0.085536405
212	0x3d6c87f3	0.05774684
213	0xbd8e64ed	-0.06952844
214	0xbd859f7b	-0.06524559
215	0xbe0d9abd	-0.13828559
216	0x3d0cda08	0.03438762
217	0xbda64cc2	-0.08120109
218	0x3d8f7ca2	0.07006194
219	0xbdc61a71	-0.09673012
220	0x3de2d2e1	0.11075378
221	0xbdcccfb1	-0.100005515
222	0xbc2ac337	-0.010422519
223	0x3e1a73cf	0.1508324
224	0xbd70bdd0	-0.05877477
225	0xbe038076	-0.12841973
226	0x3e299249	0.1655971
227	0x3dda9b26	0.106741235
228	0xbdf3be8d	-0.11901579
229	0xbbbd13bd	-0.0057701753
230	0xbd2c55f0	-0.042074144
231	0xbd5f66bf	-0.054541346
232	0xbdd9720f	-0.10617458
233	0xbcae495b	-0.021275213
234	0x3ccc3acf	0.024930386
235	0x3e0f6ff4	0.1400755
236	0xbdf135fd	-0.117778756
237	0xbd77b0b6	-0.06047126
238	0x3d9eded8	0.07757348
239	0x3ced75a0	0.028986752
240	0x3e080884	0.13284498
241	0x3b7606e9	0.003754074
242	0x3dd6caa1	0.10487867
243	0xbd354008	-0.044250518
244	0xbdfc2061	-0.12310863
245	0x3d29654d	0.041356374
246	0x3c1ecdc0	0.009692609
247	0x3e54be89	0.20775808
248	0x3cd1756c	0.025568686
249	0xbd4811d3	-0.048845123
250	0x3d9437f6	0.07237236
251	0xbc972e6c	-0.018454753
252	0xbe17540d	-0.14778157
253	0x3cbcfa72	0.02306864
254	0x3e05b419	0.13056983
255	0xbe02cb36	-0.12772831

StatefulPartitionedCall/sequential_1/conv2d_1/Conv2D_bias f4 [32]
0	0x3d06dcd8	0.032925457
1	0x3d456bd7	0.048198547
2	0xbcf7766c	-0.030207835
3	0xbac9c80e	-0.0015394704
4	0x3cf39fca	0.02973928
5	0x3b779041	0.003777519
6	0x3c68452a	0.014176646
7	0xbca284c8	-0.019838706
8	0x3d2ee966	0.042703055
9	0x3c95bb1f	0.018277703
10	0x3ce01e5e	0.02735823
11	0xbba44ff5	-0.0050144144
12	0x3d13aaa7	0.03605142
13	0x3c8b53bd	0.017007703
14	0x3c4b38ec	0.012403708
15	0xbc01c182	-0.007919671
16	0x3cba6efc	0.022758
17	0xbc9eb659	-0.01937406
18	0xbca6f57f	-0.020380734
19	0x3cac15b2	0.021006439
20	0x3d7dd060	0.0619663
21	0x3c401555	0.011723836
22	0xbc37eebd	-0.011226353
23	0x3caa9344	0.020822175
24	0x3b0094fd	0.0019620054
25	0xbcbc6a8b	-0.023000022
26	0xbc8bd302	-0.01706839
27	0x3cad1ec2	0.02113283
28	0xbc99a89a	-0.018757153
29	0x3c4f4e5a	0.012652958
30	0xbbbe91ac	-0.0058157053
31	0x3c8c6668	0.017138675

StatefulPartitionedCall/sequential_1/conv2d_2/Conv2D/ReadVariableOp f4 [64, 3, 3, 32]
0	0xbd7f9d65	-0.062405962
1	0x3c2ccbd4	0.010546643
2	0xbd218621	-0.039434556
3	0xbd44ee75	-0.048078973
4	0x3d38aad7	0.0450848
5	0xbd18e71e	-0.037329786
6	0x3c887bf1	0.016660662
7	0x3d74b9ef	0.059747633
8	0x3c74a785	0.014932518
9	0xbd45af57	-0.04826292
10	0x3c34f6f2	0.0110452045
11	0x3ce2003e	0.027588006
12	0x3d2c1492	0.042011805
13	0xbdb356e8	-0.087568104
14	0x3dba22a4	0.090886384
15	0x3d8aefce	0.0678402
16	0xbcf07cd4	-0.029356398
17	0xbd6e7a34	-0.05822201
18	0x3d6bf47a	0.057606198
19	0xbd547963	-0.051873576
20	0xbdaf4c83	-0.08559515
21	0x3c89a75a	0.016803432
22	0xbc685888	-0.014181264
23	0x3d4edcb7	0.05050346
24	0xbd94edbb	-0.07271906
25	0x3d4d6a8b	0.050150435
26	0x3d3272b0	0.043566406
27	0xbda9023a	-0.08252378
28	0xbda47bdc	-0.08031437
29	0xbc886891	-0.016651424
30	0x3da9a843	0.082840465
31	0xbd698c82	-0.057018764
32	0x3d7c8972	0.061654516
33	0x3d6c1109	0.057633433
34	0x3ce2c69f	0.0276826
35	0x3d6137dc	0.054984912
36	0xbd9759d8	-0.07390183
37	0xbdb4b46c	-0.08823475
38	0xbc716258	-0.01473292
39	0xbd70ec66	-0.058819197
40	0xbd9ef62c	-0.07761797
41	0xbdaf15b8	-0.085490644
42	0xbd1c85b4	-0.038213447
43	0x3c71da6a	0.014761547
44	0xbd7fa4da	-0.062413074
45	0x3cc02a5d	0.0234577
46	0xbd453661	-0.048147563
47	0xbd69a3fb	-0.05704115
48	0xbdcf15f1	-0.10111607
49	0xbd795363	-0.06087054
50	0xbd968402	-0.07349397
51	0xbcf8e522	-0.030382697
52	0xbd2396e2	-0.039938815
53	0xbd908c2d	-0.070579864
54	0xbd9a380a	-0.0753022
55	0xbcaa33b7	-0.020776613
56	0xbc725cfb	-0.014792676
57	0xbdd86480	-0.10566044
58	0xbb1082d8	-0.0022050645
59	0xbdb9b46d	-0.090676166
60	0x3d62282b	0.05521409
61	0xbb6c76f1	-0.0036081637
62	0xbdb7ed69	-0.08980829
63	0xbd89e4c0	-0.06733084
64	0xbd915d63	-0.0709789
65	0xbb041ccc	-0.0020158766
66	0x3d21a039	0.03945944
67	0xbd8a77d1	-0.067611344
68	0xbdca088b	-0.09864911
69	0x3d650c6d	0.055920053
70	0x3dc8b821	0.09800745
71	0xbd537e7e	-0.051634304
72	0x3d1fc9e7	0.03901091
73	0x3d82e65d	0.063915946
74	0xbd1a8556	-0.037724815
75	0x3c53c511	0.012925402
76	0xbcc2942b	-0.023752293
77	0x3d800366	0.06250648
78	0x3d042456	0.032261215
79	0xbda16df5	-0.07882301
80	0xbc3711b4	-0.011173654
81	0x3cd2e790	0.025745183
82	0x3be01935	0.0068389424
83	0xbdfc1f3e	-0.123106465
84	0xbd0e3c20	-0.03472531
85	0x3dae0c4e	0.08498441
86	0xbd49afbd	-0.049239863
87	0x3c6222cc	0.0138022415
88	0xbd68bbbe	-0.05681967
89	0xbd058513	-0.032597613
90	0xbd2266f0	-0.03964895
91	0xbd698d7c	-0.057019696
92	0xbc884be4	-0.01663775
93	0xbd3c44be	-0.045963995
94	0x3cd07b7f	0.025449513
95	0xbd94aa08	-0.072589934
96	0x3d10353e	0.035207026
97	0x3c9315dc	0.01795476
98	0xbcd2043f	-0.02563679
99	0xbc6920c2	-0.0142290015
100	0x3c8ed673	0.017436242
101	0x3d98867e	0.07447527
102	0xbd4cbac8	-0.049982816
103	0xbcd2ea14	-0.025746383
104	0x3b51208f	0.0031910276
105	0x3c301ff1	0.010749803
106	0x3d91655b	0.0709941
107	0x3d8db4a4	0.0691922
108	0x3d968e31	0.073513396
109	0xbd8a4da0	-0.06753087
110	0x3cd1fd63	0.02563352
111	0xbd2f25cc	-0.042760655
112	0x3c94a80f	0.018146543
113	0x3bfe0cc1	0.007752985
114	0x3d939a65	0.07207183
115	0x3d77f0f0	0.06053251
116	0xbdf3dd16	-0.11907403
117	0x3cbad147	0.02280487
118	0xbd58222d	-0.052766968
119	0x3d9f0625	0.07764844
120	0x3aff8c2c	0.001949673
121	0xbc1fc170	-0.009750709
122	0xbda25749	-0.079268046
123	0x3d755671	0.05989689
124	0x3d7d1994	0.06179197
125	0x3d0ade48	0.03390339
126	0xbd68cdb7	-0.05683681
127	0x3d9b5a0a	0.07585533
128	0x3d081ce9	0.033230696
129	0xbdd206ad	-0.102551796
130	0xbbdd52bd	-0.006754248
131	0xbc644875	-0.013933291
132	0x3daf21d1	0.08551372
133	0xbdedbdca	-0.11608465
134	0xbe014481	-0.12623788
135	0x3da98b76	0.08278553
136	0x3d654432	0.05597324
137	0xbd907a2a	-0.07054551
138	0x3bb67a19	0.0055687544
139	0x3d01836a	0.031619467
140	0xbdbc95c8	-0.09208256
141	0xbca084eb	-0.01959463
142	0x3daeead2	0.08540882
143	0x3d4d2c74	0.050091222
144	0xbd8f328c	-0.06992063
145	0x3c3023d2	0.010750728
146	0x3d89d62c	0.06730303
147	0xbd3497bb	-0.044090014
148	0xbd38823c	-0.045046076
149	0xbd6b6dc1	-0.057477716
150	0xbcf9432f	-0.030427543
151	0x3b0447b3	0.0020184338
152	0xbd073782	-0.03301192
153	0x3d3f2e1f	0.046674844
154	0xbcad2f37	-0.021140678
155	0x3c8e074c	0.017337464
156	0x3ce4e239	0.027939903
157	0x3d55d585	0.05220558
158	0xbd1b260b	-0.037878077
159	0xbcf842f7	-0.030305369
160	0x3db6f682	0.089337364
161	0xbd8c0304	-0.06836513
162	0x3c714005	0.014724736
163	0xbd0d3747	-0.034476545
164	0xbc13329f	-0.008984237
165	0x3b827377	0.0039810496
166	0x3d64275e	0.055701606
167	0xbd96d574	-0.07364932
168	0xbd15e68c	-0.03659682
169	0x3c7353b4	0.014851499
170	0xbd1445af	-0.036199268
171	0x3d9bb7f9	0.076034494
172	0xbddebf30	-0.1087631
173	0xbcf09218	-0.029366538
174	0x3d896739	0.06709141
175	0xbca57fe8	-0.020202592
176	0xbccd0b5e	-0.025029834
177	0xbd9bd016	-0.076080486
178	0x3c82ddbe	0.015974876
179	0x3c7814c1	0.015141667
180	0x3d1c7c5e	0.038204543
181	0x3d8d1bd1	0.06890071
182	0x3d7ac013	0.061218332
183	0xbb264c9b	-0.002537525
184	0x3c8e6ad4	0.017384924
185	0xbca4303c	-0.020042531
186	0xbd65ffc2	-0.056152113
187	0xbd969488	-0.07352549
188	0xbd9948de	-0.074846014
189	0xbd9a81f8	-0.07544321
190	0x3d1017ff	0.035179134
191	0xbc675637	-0.014119676
192	0x3d55759e	0.05211412
193	0xbd8a8352	-0.067633286
194	0xbc7f8283	-0.015595081
195	0xba5b1a69	-0.00083581224
196	0xbd2bba7c	-0.041925892
197	0x3cf1b7e5	0.029506633
198	0xbd30ee2e	-0.043195896
199	0x3d01070b	0.031500857
200	0xbc621d5c	-0.013800945
201	0x3cde30e1	0.027122917
202	0xbda157af	-0.078780524
203	0x3d0bfb8b	0.034175437
204	0x3d2e0f40	0.042495012
205	0x3cf43233	0.029809093
206	0xbd1a0029	-0.03759781
207	0x3d2d82cb	0.042361062
208	0xbcd4675b	-0.02592819
209	0x3cf9df83	0.030502087
210	0x3ca75627	0.020426823
211	0xbdcd2ad4	-0.100179344
212	0xbdda8575	-0.10669986
213	0xbc034fe0	-0.008014649
214	0x3d7c68b2	0.061623283
215	0x3dbb8863	0.09156873
216	0xbd6b2404	-0.057407394
217	0x3d9e069b	0.07716104
218	0xbd33321d	-0.043748964
219	0xbdce9889	-0.100876875
220	0x3ca38265	0.019959638
221	0x3ce48475	0.027895192
222	0x3ce65c03	0.028120046
223	0x3d3c3640	0.045950174
224	0xbcc04fb0	-0.023475498
225	0xbc83c9ab	-0.016087374
226	0x3ce7c5d3	0.028292572
227	0x3ce4bf89	0.027923362
228	0x3da2a618	0.07941836
229	0x3d8a6b33	0.06758728
230	0xbd6b55f3	-0.057455014
231	0xbd91f118	-0.07126063
232	0xbd9a251d	-0.0752661
233	0xbd6419ad	-0.05568855
234	0xbbf77369	-0.0075515998
235	0xbca17bf4	-0.019712426
236	0xbdb3dcb9	-0.08782334
237	0xbd41a2ff	-0.047274586
238	0x3ba9ec18	0.0051856153
239	0xbccdf4c0	-0.02514112
240	0xbc10f469	-0.008847334
241	0xbdaf31fe	-0.08554457
242	0x3cf04f41	0.029334666
243	0xbd3c40e2	-0.045960315
244	0x3c092520	0.008370668
245	0xbd1a2af9	-0.03763864
246	0xbd9ec767	-0.07752877
247	0x3bd292d1	0.0064261933
248	0x3d40cf99	0.04707298
249	0xbd95f9dc	-0.073230475
250	0xbda22487	-0.07917123
251	0x3bf73ace	0.007544852
252	0x3d21ec44	0.03953196
253	0xbd5b9a9b	-0.05361424
254	0x3d9554ba	0.07291551
255	0xbbeeff39	-0.0072936085

StatefulPartitionedCall/sequential_1/conv2d_2/Conv2D_bias f4 [64]
0	0x3b0215c1	0.0019849392
1	0xbc303dfb	-0.010756965
2	0x3c9e8e58	0.019354984
3	0xbc20b001	-0.009807588
4	0xbb2a125b	-0.0025950882
5	0xbc702e83	-0.014659527
6	0x3bfaae88	0.0076502003
7	0xbc92a90c	-0.017902873
8	0x3bb6e07c	0.00558096
9	0xbc559953	-0.013037044
10	0x3beff2a7	0.0073226276
11	0x3c1cea04	0.009577278
12	0x3a2bc627	0.00065526593
13	0xbc41c02d	-0.011825603
14	0xbce080ad	-0.027405107
15	0xbc9e98f8	-0.01936005
16	0x3c4671b7	0.012112073
17	0xbc420f3d	-0.011844453
18	0xbc17de95	-0.009269376
19	0xbc656fe9	-0.014003732
20	0x3b0d8306	0.0021592989
21	0x3aa324ee	0.0012446919
22	0xbc2aa5cb	-0.010415505
23	0xbbd761ab	-0.006572922
24	0xbbbdcff9	-0.0057926145
25	0x3c422340	0.011849225
26	0x3c3cd677	0.011525742
27	0xbc157b58	-0.009123646
28	0x3b916d2c	0.004438063
29	0xbc67ac7b	-0.014140244
30	0x3bfcd7fe	0.007716178
31	0x3c838c63	0.016058153
32	0x3ca99f90	0.020705968
33	0xbc3caf58	-0.011516415
34	0x3c7f17a8	0.015569605
35	0x38c057b8	9.171612e-05
36	0xbc55b4ee	-0.013043625
37	0xbc60e8b4	-0.013727356
38	0x3cbfc8e6	0.023411226
39	0xbb8b17ef	-0.0042447965
40	0x3c3b8181	0.01144445
41	0x3be9ac1d	0.007131113
42	0xbc9f542f	-0.019449322
43	0x3c8fe5d7	0.01756565
44	0xbbedf2f8	-0.00726163
45	0x3cd0c205	0.02548314
46	0x3bcd5994	0.006266782
47	0x3c84d72a	0.01621588
48	0xbcabb332	-0.02095947
49	0xbb2a7473	-0.002600935
50	0x3caf87be	0.021427032
51	0xbba523db	-0.0050396747
52	0xb9d04a03	-0.00039727995
53	0xbbcd241a	-0.006260407
54	0xbc9e6361	-0.019334497
55	0xbcad96ca	-0.021190066
56	0xbc059d8c	-0.008155238
57	0x3b9649e5	0.0045864456
58	0xbc7f9448	-0.015599318
59	0xbbec7975	-0.0072166272
60	0x3c23acb4	0.009989906
61	0xbc78970e	-0.015172733
62	0xbc8d0b82	-0.017217401
63	0xbc26e06d	-0.010185343

StatefulPartitionedCall/sequential_1/dense_1/MatMul/ReadVariableOp/transpose f4 [128, 1600]
0	0x3d982381	0.07428647
1	0x3d8ed0e0	0.069734335
2	0x3dd64e1f	0.10464119
3	0x3d1c1744	0.038108125
4	0xbbd77a7a	-0.0065758796
5	0x3b38dc37	0.002820743
6	0x3cc12f5a	0.02358215
7	0x3d03dcf2	0.03219313
8	0x3da1b4a3	0.07895782
9	0x3c995481	0.018717052
10	0x3d9ecc0d	0.07753763
11	0x3dabc2e3	0.08386781
12	0x3d09fc8f	0.033688124
13	0xbd0fe17c	-0.035127148
14	0x3d977bd3	0.073966645
15	0xbcd039bb	-0.025418153
16	0x3d9a45ca	0.075328425
17	0xbcd9c5d1	-0.026583584
18	0x3c1f0b9d	0.009707359
19	0x3dbe897a	0.09303565
20	0x3df6d7fb	0.12052914
21	0xb90aab4c	-0.00013224519
22	0x3d8a5f84	0.067564994
23	0x3cf82681	0.030291798
24	0xbb47254e	-0.0030387226
25	0x3da63bbf	0.081168644
26	0x3d16aad3	0.036784004
27	0x3cba5708	0.022746578
28	0x3cff09a9	0.031132536
29	0xbb5caacf	-0.0033671146
30	0x3bea7e16	0.007156144
31	0x3d242805	0.040077228
32	0xbd2552f6	-0.04036232
33	0x3d194f64	0.03742923
34	0x3d5c4cb0	0.053784072
35	0x3d9b9c5a	0.07598181
36	0x3ce4c14e	0.027924206
37	0xbccbb645	-0.024867186
38	0x3dcca31d	0.09992049
39	0xbd4fc833	-0.050728034
40	0x3d84e783	0.0648947
41	0x3d463e80	0.04839945
42	0x3d340e8c	0.043959185
43	0x3d8874f0	0.06662929
44	0x3dc363b6	0.09540503
45	0x3d13cf73	0.03608651
46	0xbbc6bcd0	-0.0060649887
47	0x3d8f1fc2	0.06988479
48	0xbc534052	-0.012893753
49	0xbd3ca635	-0.046056945
50	0xbc77a208	-0.015114315
51	0xbce456e2	-0.02787346
52	0xbcdf9e19	-0.027297067
53	0xbcc2bac1	-0.023770692
54	0x3d09ceab	0.03364436
55	0xbc366e18	-0.011134647
56	0xbbcfec72	-0.006345325
57	0x3c3f5544	0.011678044
58	0xbd552156	-0.052033745
59	0x3c095556	0.008382162
60	0x3b0b9691	0.0021299461
61	0x3d5e9310	0.05433947
62	0x3d333303	0.04374982
63	0x3cbaeeed	0.022819007
64	0xbb5ee055	-0.0034008224
65	0x3d507902	0.050896652
66	0xbcbb1aac	-0.022839867
67	0xbd281158	-0.041032165
68	0x3d506120	0.050873876
69	0x3d667d5a	0.05627189
70	0xbcfd9151	-0.030953081
71	0xbcacd819	-0.021099137
72	0xbc97e1d6	-0.018540304
73	0xbccc8789	-0.024966972
74	0x3d62ee20	0.055402875
75	0xbaa8f7a2	-0.0012891183
76	0x3da4470e	0.08021365
77	0x3cc7322a	0.024315912
78	0x3d438604	0.04773523
79	0xbd0e2596	-0.034703813
80	0x3ce78db2	0.028265808
81	0xbb01f535	-0.0019829993
82	0xbc8f81f8	-0.017518029
83	0x3ca448c7	0.020054234
84	0xbd0763e9	-0.033054266
85	0x3b3686fc	0.0027851453
86	0x3d612c73	0.05497403
87	0xbcfa7024	-0.030571051
88	0xbd5a25bb	-0.05325864
89	0x3d94d326	0.07266836
90	0xbd048d30	-0.03236121
91	0x3d7399f4	0.059472993
92	0xbd0d5a13	-0.03450973
93	0x3d902433	0.070381545
94	0x3d117d95	0.035520155
95	0x3db7b508	0.08970076
96	0xbcdd2f70	-0.027000159
97	0xbcdc270c	-0.026874088
98	0x3d193dd4	0.03741248
99	0x3caba798	0.020953938
100	0xbc638e36	-0.013888886
101	0x3cc55b60	0.024091423
102	0xbc0e5e66	-0.0086894985
103	0x3d047764	0.032340422
104	0x3cadbd1a	0.021208335
105	0xbcbf77e5	-0.0233726
106	0x3cad0627	0.021121098
107	0xbcf3fa7d	-0.029782528
108	0x3d75cb10	0.06000811
109	0x3d9bc1d5	0.0760533
110	0x3d441654	0.047872856
111	0x3c083994	0.008314509
112	0x3ce12f5f	0.027488409
113	0x3d7beae4	0.061503306
114	0xbc917104	-0.017754085
115	0xbd08613c	-0.033295855
116	0xbd849c95	-0.06475178
117	0xbb5fdab9	-0.0034157468
118	0xbc998687	-0.018740905
119	0x3da6a5c9	0.0813709
120	0x3d775c36	0.060390674
121	0x3d9f4f35	0.077787794
122	0x3b714b43	0.003681854
123	0x3ceb4eba	0.028724063
124	0x3c81477f	0.015781162
125	0x3cf81549	0.030283587
126	0x3d9e690e	0.07734881
127	0xbacef15a	-0.0015788481
128	0xbd73bb60	-0.059504867
129	0x3d3b5fe4	0.045745745
130	0xbcc776db	-0.024348667
131	0x3a9756f2	0.0011546297
132	0x3b90e8ea	0.004422297
133	0xbca15be6	-0.01969714
134	0xbd911219	-0.0708353
135	0x3d95b1a1	0.07309271
136	0x3b4bc581	0.0031093063
137	0xbcb23d9b	-0.021757891
138	0x3a32bf5b	0.00068186753
139	0x3aa9e138	0.0012960797
140	0xbd82e36b	-0.06391033
141	0xbd1b3af0	-0.037898004
142	0x3b71e16c	0.0036908044
143	0xbd81f717	-0.06345957
144	0xbcd62fd8	-0.02614586
145	0x3bcc3f32	0.0062331194
146	0xbcb3f683	-0.021968132
147	0xbdc4fda2	-0.09618689
148	0xbc855932	-0.016277883
149	0xb762f392	-1.352736e-05
150	0x3ccb3069	0.024803357
151	0xbd0adeb5	-0.033903796
152	0xbd67a701	-0.05655575
153	0x3d15f0c1	0.036606554
154	0x3d6fefec	0.058578417
155	0xbd9e073f	-0.07716226
156	0xbd29368f	-0.041311797
157	0xbd64c7e7	-0.055854704
158	0xbd80f6b1	-0.06297053
159	0x3c4bbff8	0.012435906
160	0x3cab44fc	0.020906918
161	0x3d3877cf	0.045036133
162	0x3da38273	0.079838656
163	0xbc03c018	-0.008041404
164	0xbd4d964e	-0.05019217
165	0xba99d3a4	-0.0011736047
166	0xbc81b7cb	-0.01583471
167	0xbb123284	-0.0022307942
168	0x3d4489e6	0.047983073
169	0x3ccdadf9	0.02510737
170	0xbccee219	-0.025254296
171	0xbd0a7817	-0.033805933
172	0x3d54244d	0.05179243
173	0xbd230b8c	-0.039805934
174	0x3d7a2729	0.061072502
175	0xbcb5d36e	-0.022195544
176	0xbd9d9087	-0.07693582
177	0xbd0fbf1d	-0.03509437
178	0x3d3ebc65	0.046566386
179	0x3cc2f572	0.023798678
180	0xbd620a37	-0.055185523
181	0x3b3ee8d2	0.002913047
182	0xbc19c57f	-0.009385466
183	0xbdbb8ab1	-0.09157313
184	0xbd14c7a0	-0.03632319
185	0xbc2167f9	-0.009851449
186	0xbd307d84	-0.04308845
187	0x3cd55646	0.026042115
188	0xbcb15e9b	-0.021651557
189	0xbdabd97c	-0.08391091
190	0xbd7ec3d5	-0.06219848
191	0x3a8856a2	0.0010401795
192	0xbcd10954	-0.025517143
193	0xbcde4f6c	-0.02713748
194	0x3d1e9261	0.038713817
195	0xbaa0b7f9	-0.0012261859
196	0xbd6fddfe	-0.058561318
197	0x3d1c95e7	0.038228896
198	0xbc8de688	-0.01732184
199	0x3d0272df	0.03184783
200	0xbd3a889d	-0.04554044
201	0x3d51dc4f	0.051235493
202	0x3d5e1e47	0.054228093
203	0x3d69f1a7	0.057115223
204	0xbd61ef69	-0.05515996
205	0x3d2853f4	0.04109569
206	0x3d83274e	0.06403981
207	0x3d3207e8	0.04346457
208	0xbd4bbf56	-0.04974302
209	0xbc4f40fc	-0.012649771
210	0xbd0e5953	-0.034753155
211	0xbcffa6fc	-0.031207554
212	0x3d072afe	0.032999985
213	0xbd35a6ac	-0.044348404
214	0xbd516009	-0.051116977
215	0xbc4fcdb7	-0.012683324
216	0x3d5605ad	0.052251507
217	0xbd9923ec	-0.07477555
218	0x3d5083fe	0.050907128
219	0xb9f907af	-0.00047498706
220	0x3be6afaa	0.0070399838
221	0x3c0a9f10	0.008460775
222	0x3d174769	0.036933336
223	0x3d58a572	0.052892156
224	0x3d766584	0.060155407
225	0x3d7e4e5d	0.06208645
226	0x3d27374c	0.04082422
227	0xbcbf5613	-0.023356473
228	0xbd5a4fbf	-0.053298708
229	0x3cd1a949	0.025593417
230	0xbd80339b	-0.06259843
231	0xbd5a2177	-0.05325457
232	0x3b04c359	0.0020258038
233	0x3c3c2cd2	0.011485295
234	0xbd10d0bc	-0.035355315
235	0x3d170c12	0.036876746
236	0x3d75f2ae	0.06004589
237	0xbb2e1023	-0.0026559911
238	0x3d82128a	0.06351192
239	0x3d618756	0.055060707
240	0x3cc7b328	0.02437742
241	0x3cd4b9de	0.025967535
242	0x3d9b8ac3	0.07594826
243	0x3c41585e	0.011800854
244	0xbc9c1c80	-0.019056559
245	0x3d53c380	0.051700115
246	0x3c9bfdea	0.019041974
247	0x3c841c12	0.016126666
248	0x3cae5652	0.021281395
249	0xbc99d663	-0.018778985
250	0xbc8afe50	-0.016966969
251	0x3cc91fe5	0.024551341
252	0xbc022ec4	-0.00794572
253	0x3c16d470	0.0092059225
254	0xbbc4c28a	-0.006004636
255	0xbd735364	-0.0594057

StatefulPartitionedCall/sequential_1/dense_1/MatMul_bias f4 [128]
0	0x3c92c9d3	0.017918503
1	0xbb730d76	-0.003708688
2	0x3cc0246c	0.023454867
3	0xbc365c90	-0.011130467
4	0xbbbac370	-0.0056995675
5	0xbbcaf50c	-0.0061937626
6	0xbc0f2d22	-0.008738788
7	0x3b5445bc	0.0032390198
8	0x3c8d9cb3	0.017286634
9	0x3acf264f	0.0015804264
10	0x3bbd270a	0.005772476
11	0xbc6a90ea	-0.014316777
12	0x3a3620ac	0.00069476175
13	0x3b9f3614	0.0048587415
14	0x3b6f5288	0.0036517698
15	0x3cc8d20e	0.024514224
16	0xbc564625	-0.013078247
17	0x3cb5e1a1	0.022202315
18	0xbc3d6df3	-0.0115618585
19	0xbc24d47c	-0.010060426
20	0x3cb7641a	0.0223866
21	0x3cd675fa	0.026179302
22	0x3c0c8109	0.008575686
23	0xbc44a612	-0.012002485
24	0xbbf49906	-0.007464531
25	0xbba920b6	-0.00516137
26	0xb8d4b9cc	-0.00010143555
27	0xbb328ffb	-0.0027246464
28	0x3c4b89ad	0.012422961
29	0x3c4a5032	0.012348222
30	0x3c3049a2	0.010759743
31	0xbc09bda3	-0.008407029
32	0xbbe6b6e1	-0.007040844
33	0xbc211db0	-0.009833738
34	0xbc09736f	-0.008389338
35	0xbc4b7324	-0.012417588
36	0x3c88843f	0.016664622
37	0xbc3541c2	-0.011063041
38	0xbc06a6e7	-0.008218504
39	0x3c9c9a5a	0.01911657
40	0x3c595847	0.013265676
41	0xb995af2d	-0.0002855001
42	0xbbf90e3e	-0.0076005748
43	0x3a83834f	0.001003364
44	0x3c8ac9df	0.016941963
45	0xbbfa661d	-0.0076415674
46	0x3c5f4e97	0.013629577
47	0x39e6fc10	0.0004405682
48	0xbc02c640	-0.007981837
49	0xbbd32d82	-0.006444634
50	0x3c372c13	0.011179942
51	0xbc07d5c4	-0.008290712
52	0xbbb2352d	-0.005438468
53	0xbbfde3f8	-0.0077481233
54	0xbc1aa6b2	-0.009439157
55	0xbb7d1557	-0.0038617456
56	0xbbe70094	-0.0070496295
57	0x3add4fd4	0.0016884753
58	0xbb884115	-0.004158149
59	0xbc63313a	-0.013866717
60	0x3c611e0b	0.013740073
61	0xbb8d8bba	-0.004319635
62	0xba7e234f	-0.00096945924
63	0xbc16e652	-0.009210186
64	0xbc2dbbd8	-0.0106038675
65	0xbc87d094	-0.01657895
66	0xbae40213	-0.0017395638
67	0xbbcc38a4	-0.006232338
68	0xbb9cac4a	-0.0047812806
69	0xbb965b9a	-0.0045885565
70	0xbc298d1c	-0.0103485845
71	0xbc15d5f2	-0.009145247
72	0xbbfe83a0	-0.0077671558
73	0xbc535511	-0.012898699
74	0xba019086	-0.0004942495
75	0x3cc118b1	0.023571344
76	0x3ce9e611	0.028552087
77	0x3bfe2579	0.007755932
78	0xbc47b272	-0.012188541
79	0x3c888498	0.016664788
80	0xbc42caf2	-0.011889206
81	0xbc075a6c	-0.008261304
82	0x3b58ef38	0.003310157
83	0x3c18f935	0.009336759
84	0xbb0ece24	-0.002179035
85	0x397e1fbe	0.00024235153
86	0x3c71e636	0.014764359
87	0x3c24b340	0.010052502
88	0xbbedcb3a	-0.0072568925
89	0xbbd802b9	-0.0065921214
90	0x3c98c317	0.018647714
91	0xbbcf021e	-0.006317391
92	0xba5cc60c	-0.0008421845
93	0xbc84ee1f	-0.016226826
94	0x3895c71a	7.141959e-05
95	0xbc12d6c5	-0.008962338
96	0x3aa5e1ba	0.0012655773
97	0x3ba9e1a1	0.0051843678
98	0xbbf00803	-0.007325174
99	0xbc4a45bf	-0.01234573
100	0xbc13a6ff	-0.009011983
101	0xbbea5ffa	-0.0071525546
102	0xbbca9176	-0.006181891
103	0x3c3b04cf	0.011414721
104	0x3b6523c4	0.0034963945
105	0x3c0114dd	0.007878509
106	0xbbf3a9bd	-0.007436006
107	0xbbe0596f	-0.006846599
108	0x3c5eaf87	0.013591654
109	0x3bbfa5b3	0.0058486103
110	0x3c226f63	0.009914252
111	0xbc226a30	-0.009913012
112	0xbc24e2f1	-0.010063873
113	0xbac85cca	-0.0015286442
114	0xbc421486	-0.0118457135
115	0xbbf443fb	-0.007454393
116	0xbc48d376	-0.0122574475
117	0xbb521da9	-0.0032061136
118	0x3952fdb0	0.00020121667
119	0xbc2b7ddd	-0.01046702
120	0xbbff5b78	-0.0077928863
121	0xbc1ce314	-0.009575624
122	0xbc1a1888	-0.009405263
123	0xbc16e1a7	-0.009209073
124	0xbbafe044	-0.0053673107
125	0xbc0c7129	-0.008571901
126	0xbc5100ad	-0.012756509
127	0xbbb86440	-0.005627185

StatefulPartitionedCall/sequential_1/dense_2/MatMul/ReadVariableOp/transpose f4 [64, 128]
0	0x3d5d993b	0.05410121
1	0x3dedab74	0.11604968
2	0x3dfd540c	0.12369546
3	0xbe150c4b	-0.1455547
4	0x3d99e8f8	0.075151384
5	0xbd05c495	-0.03265818
6	0xbc403ea0	-0.011733681
7	0x3cf52444	0.02992452
8	0x3d7174f4	0.058949426
9	0xbd09cfe2	-0.033645518
10	0x3d493088	0.04911855
11	0xbcb17ed3	-0.02166692
12	0xbd0f1cdb	-0.034939628
13	0xbd22b554	-0.03972371
14	0x3da8d537	0.082437925
15	0x3d4c5a40	0.049890757
16	0x3d7f5f69	0.06234685
17	0x3e48b816	0.19601473
18	0x3db32a5b	0.08748313
19	0x3d1a10ab	0.037613552
20	0x3e58c275	0.2116793
21	0x3d933d18	0.07189387
22	0xbdff1e0f	-0.12456905
23	0x3de5133a	0.11185308
24	0x3e09a454	0.13441592
25	0x3cd8fc6b	0.02648755
26	0x3dc1f15c	0.09469864
27	0xbe0cf52b	-0.13765399
28	0x3e1e660a	0.15468612
29	0x3d7a6d12	0.061139174
30	0x3e219ff4	0.15783674
31	0x3e1e4a48	0.15458024
32	0xbcad13c0	-0.021127582
33	0xbdd08fb3	-0.101836585
34	0x3e0147af	0.12625001
35	0xbe0478e3	-0.1293674
36	0xbd461873	-0.04836316
37	0xbd2d5af0	-0.042323053
38	0x3da8bcf2	0.082391635
39	0x3e2094ac	0.15681714
40	0x3e2a56cc	0.16634673
41	0xbe52591b	-0.20541804
42	0x3dea0d13	0.11428275
43	0xbdbf7ee6	-0.09350376
44	0xbda24dc0	-0.07924986
45	0x3e0aa9ff	0.13541411
46	0x3e55c9d6	0.20877776
47	0xbe16b647	-0.14717971
48	0x3d760e99	0.060072515
49	0x3df33866	0.118759915
50	0x3e1fcd20	0.15605593
51	0xbe560d67	-0.2090355
52	0x3d88c951	0.06679023
53	0x3d4afcee	0.04955762
54	0x3e2d1342	0.16901878
55	0xbdc5f44a	-0.09665735
56	0x3df0d715	0.11759774
57	0xbdf4e521	-0.11957765
58	0xbd54f5f2	-0.051992364
59	0xbd8edd7f	-0.06975841
60	0xbcb739c5	-0.022366414
61	0x3daa5471	0.08316887
62	0x3ca7f248	0.02050127
63	0x3d698d19	0.057019327
64	0xbc9a67e6	-0.01884837
65	0x3e2ba4b4	0.16762048
66	0xbe36c5b8	-0.17848861
67	0x3e0ead6a	0.1393334
68	0x3d3152ca	0.043291844
69	0x3dc4aa12	0.09602751
70	0x3d48fae1	0.04906738
71	0x3e0ab3c9	0.13545145
72	0xbd210742	-0.039313562
73	0xbd987c24	-0.07445553
74	0xbe435126	-0.19073924
75	0x3df6911e	0.12039398
76	0x3d117e31	0.035520736
77	0xbdce1e63	-0.100643896
78	0xbe09f5a7	-0.13472615
79	0x3db09449	0.08622033
80	0xbb615b05	-0.0034386527
81	0xbe1d4966	-0.1536003
82	0xbe28e659	-0.1649412
83	0x3e199311	0.14997508
84	0x3e3c4493	0.18385534
85	0xbdd446dc	-0.10365078
86	0xbd6c59a2	-0.057702668
87	0x3d580f9d	0.052749265
88	0x3d85f1f6	0.06540291
89	0xbba1058f	-0.0049139927
90	0xbe0056d0	-0.12533116
91	0x3d42c0c7	0.047547128
92	0xbe11f6e0	-0.14254332
93	0xbd70b052	-0.058761902
94	0xbdf6f70c	-0.12058839
95	0x3dace166	0.08441429
96	0xbdfa13d3	-0.122108124
97	0xbe123a76	-0.14280114
98	0xbd48bceb	-0.04900829
99	0xbcd676c9	-0.026179688
100	0x3d0d8ba3	0.034556996
101	0x3d3811a2	0.04493869
102	0xbde5f226	-0.11227827
103	0xbd1ad8dc	-0.03780447
104	0x3d9d4492	0.076790944
105	0xbdce4e79	-0.10073561
106	0x3d80ec1c	0.06295034
107	0x3d85e79e	0.06538318
108	0x3d174185	0.03692772
109	0xbdc59eec	-0.096494526
110	0x3da6da29	0.081470795
111	0xbd0cbb5c	-0.034358367
112	0x3d88adf0	0.06673801
113	0x3c086e1e	0.008327035
114	0xbcd7ae14	-0.026328124
115	0xbc6239b6	-0.013807705
116	0x3e24386f	0.16037153
117	0xbdfa3be2	-0.12218453
118	0x3dcc5c7d	0.09978578
119	0xbb392600	-0.002825141
120	0xbdd9d53c	-0.10636374
121	0x3e2b079e	0.16702124
122	0xbd6a317c	-0.0571761
123	0x3c93395c	0.017971687
124	0xbdea2262	-0.11432339
125	0xbcc94f04	-0.02457381
126	0x3d922b37	0.07137149
127	0xbe176eee	-0.1478841
128	0xbe23fa51	-0.16013457
129	0x3e0eda74	0.13950521
130	0x3beb0686	0.0071724085
131	0xbda6e135	-0.081484236
132	0x3dbc2a63	0.09187772
133	0xbd59e026	-0.05319228
134	0x3da8e45d	0.08246682
135	0x3e40cba5	0.18827684
136	0xbc663cea	-0.014052609
137	0x3d9e86d3	0.077405594
138	0xbe085c0d	-0.13316365
139	0x3de87918	0.11351222
140	0xbdc44a87	-0.095845275
141	0xbe2eae48	-0.1705867
142	0x3e09ba77	0.13450037
143	0x3e6a12f9	0.228588
144	0xbd0b36c1	-0.033987764
145	0x3cdecb83	0.027196651
146	0x3e250905	0.16116722
147	0xbd52e9df	-0.051492568
148	0xbd14294b	-0.036172193
149	0xbe2621d7	-0.16223846
150	0xbe3f89d8	-0.18704927
151	0xbd9336c5	-0.07188181
152	0xbd604939	-0.05475733
153	0xbd83088c	-0.063981146
154	0xbe2a578a	-0.16634956
155	0xbb5859ce	-0.0033012512
156	0x3d20d589	0.039266143
157	0xbc919fdf	-0.017776428
158	0xbe13b38a	-0.14423957
159	0xbd9c9147	-0.07644897
160	0x3dd16c14	0.102256924
161	0xbe2e6202	-0.17029575
162	0xbcb2962d	-0.021800125
163	0x3d97e576	0.07416813
164	0x3dd1d319	0.10245342
165	0xbd869fc4	-0.065734416
166	0x3d4bfe41	0.049803022
167	0x3e396831	0.18106152
168	0x3e0fe76c	0.14053124
169	0xbde3356d	-0.110941745
170	0xbdbd7e23	-0.09252574
171	0x3d1d558e	0.03841167
172	0x3d543c6c	0.051815435
173	0xbde8dd04	-0.113702804
174	0x3e1c58a5	0.1526819
175	0xbe064ab3	-0.13114433
176	0x3dac4c06	0.08412938
177	0x3e01ab2f	0.12662958
178	0xbdd670de	-0.104707465
179	0x3df75a7c	0.120778054
180	0x3dd593dd	0.10428593
181	0xbdefcad9	-0.11708612
182	0x3b8cf389	0.0043014926
183	0x3dc6a96a	0.09700282
184	0x3cb37769	0.021907525
185	0x3bdcac72	0.0067344243
186	0x3e06a67c	0.13149446
187	0xbe25d16f	-0.16193174
188	0x3e11effa	0.142517
189	0xbd7a555e	-0.06111657
190	0xbe11fc58	-0.14256418
191	0xbccae11d	-0.024765546
192	0xbd0e4061	-0.034729365
193	0xbda32a2d	-0.07967029
194	0x3c201f60	0.009773105
195	0xbd1bf703	-0.038077366
196	0xbcd7d420	-0.026346266
197	0xbe0a912b	-0.1353194
198	0xbd7518d6	-0.05983814
199	0xbad4b2a2	-0.0016227553
200	0x3e4f424f	0.20240138
201	0x3e08040e	0.13282797
202	0x3db23706	0.08701901
203	0xbd1c04ec	-0.03809063
204	0x3e4f9fe3	0.20275836
205	0x3e27ae67	0.16375123
206	0xbe1dd782	-0.15414241
207	0x3d61a7b3	0.05509157
208	0xbd05acf2	-0.032635637
209	0xbe1f602d	-0.15564032
210	0xbd4042c7	-0.046938684
211	0x3db4c9ea	0.088275746
212	0xbe0e7ef0	-0.1391561
213	0x3e21fcdd	0.15819116
214	0x3d82013e	0.06347893
215	0xbc2b2e0b	-0.010447989
216	0xbdb16963	-0.08662679
217	0xbbab3b01	-0.0052255397
218	0x3e08231f	0.13294648
219	0x3de4a2d6	0.11163871
220	0x3de5e2e9	0.1122492
221	0xbd35730e	-0.044299178
222	0x3d596ad1	0.053080384
223	0xbd330db3	-0.043714236
224	0x3e4a9f3f	0.1978731
225	0xbdd7adcf	-0.10531198
226	0xbcf5d569	-0.030008988
227	0xba2737b5	-0.00063788454
228	0x3d161b05	0.03664686
229	0xbe2a47af	-0.16628908
230	0x3e02abc8	0.12760842
231	0x3e332aae	0.1749675
232	0xbe089b30	-0.1334045
233	0xbd58df84	-0.052947536
234	0xbd61fb56	-0.055171333
235	0x3d1a839d	0.037723172
236	0x3e39ca7b	0.18143646
237	0x3cb92349	0.022599833
238	0x3c979f2f	0.018508522
239	0x3dd1e6e6	0.102491185
240	0xbc34821f	-0.011017351
241	0x3df3d1dc	0.11905262
242	0xbd79adc6	-0.06095674
243	0x3e00f1dc	0.12592262
244	0x3e18560b	0.14876573
245	0xbe24a4b5	-0.16078456
246	0x3dce6cf0	0.10079372
247	0xbe2e0ceb	-0.16997115
248	0x3dcbda76	0.099537775
249	0x3dcd107f	0.10012912
250	0x3e0791eb	0.13239257
251	0x3e019592	0.12654713
252	0x3db267af	0.08711182
253	0xbdd7d369	-0.1053837
254	0xbcf34e27	-0.029700352
255	0x3d44240a	0.047885932

StatefulPartitionedCall/sequential_1/dense_2/MatMul_bias f4 [64]
0	0x3c71d401	0.014760018
1	0x3c84e1ab	0.016220888
2	0x3ca5be44	0.020232327
3	0xbc7d37d6	-0.015455207
4	0x3b8988b3	0.004197204
5	0xb9f07312	-0.000458621
6	0x3b84de70	0.004054837
7	0x3d23617c	0.03988789
8	0x3cb90a5a	0.022587944
9	0x3cbc2524	0.022966929
10	0x3b8152c7	0.0039466354
11	0x3cadcf18	0.021216914
12	0x3c9c89f2	0.019108746
13	0x3c2bebe5	0.010493253
14	0x3b938510	0.0045019463
15	0x3b075309	0.0020648858
16	0xbc291d53	-0.010321933
17	0x3d737f19	0.05944738
18	0x3c2395c3	0.009984436
19	0xbd172ab2	-0.03690595
20	0x3c83b470	0.01607725
21	0xbc121e50	-0.00891836
22	0x3c581f32	0.013191031
23	0x3d5494df	0.051899787
24	0xbb779735	-0.0037779335
25	0x3a802c57	0.0009778839
26	0x3d17245a	0.036899902
27	0xbc189d07	-0.009314782
28	0xbb62b585	-0.0034593057
29	0x3b98b141	0.004659802
30	0xba95263e	-0.0011379195
31	0x3c528fcc	0.012851667
32	0x3bfb0673	0.007660681
33	0x3d0335cd	0.03203373
34	0x3c6332db	0.013867105
35	0xbbb27215	-0.0054457285
36	0xbccab8ca	-0.024746317
37	0x3d327bd4	0.043575123
38	0x3bf73979	0.007544693
39	0x3c1e479d	0.009660629
40	0x3b831536	0.0040003313
41	0xbaf6bda0	-0.0018824823
42	0x3cc126f3	0.023578143
43	0x3c163532	0.009167956
44	0x3cee362d	0.029078567
45	0x3d1163c8	0.03549555
46	0xbc6c7d68	-0.014434196
47	0x3cb19a43	0.021680003
48	0x3c66a763	0.014077994
49	0xbc470aa6	-0.012148535
50	0x3cb5ac19	0.02217679
51	0x3d3a0ba3	0.045421254
52	0x3c5e90e2	0.013584347
53	0xbc10bcb3	-0.008834052
54	0xbba33715	-0.0049809315
55	0x3c8490ae	0.01618227
56	0xbac07af0	-0.0014685076
57	0x3bd32f7f	0.006444871
58	0x3d209ec3	0.039213907
59	0xbbb08159	-0.005386513
60	0x3d6c6447	0.05771282
61	0xbc25101a	-0.01007464
62	0x3cb0ddfb	0.021590224
63	0x3b17848f	0.0023119783

StatefulPartitionedCall/sequential_1/dense_3/MatMul/ReadVariableOp/transpose f4 [3, 64]
0	0x3d461eec	0.048369333
1	0xbeaeb6d5	-0.34123865
2	0xbe843871	-0.2582431
3	0xbc5d4659	-0.013505542
4	0xbe3a1ac4	-0.18174273
5	0x3e6caafd	0.23112102
6	0x3e231304	0.15925223
7	0xbe9c4dbe	-0.30528063
8	0x3e6815f2	0.22664621
9	0xbe9e6607	-0.30937216
10	0x3d69b176	0.057054006
11	0x3e70e776	0.23525795
12	0xbe6a56c3	-0.2288466
13	0x3e405544	0.18782526
14	0x3e51e2ae	0.20496628
15	0x3e962c2d	0.29330578
16	0x3ea3eadd	0.32015124
17	0xbd232ff8	-0.03984067
18	0x3e5fdd99	0.21861877
19	0x3e7d9ca7	0.2476679
20	0x3e1cd71e	0.15316436
21	0x3d168c98	0.036755174
22	0x3ea26ac8	0.31722093
23	0x3d151e7a	0.036406018
24	0x3ca0fb61	0.019651117
25	0x3cd161f9	0.025559412
26	0xbe9a42ac	-0.30128992
27	0x3e74bf86	0.23901185
28	0xbdf1ac77	-0.11800473
29	0xbe4dd645	-0.20101269
30	0x3e43cb5a	0.19120541
31	0x3e7adf12	0.24499157
32	0xbe616272	-0.2201021
33	0xbdb41d2e	-0.08794628
34	0xbe930ebb	-0.28722176
35	0xbda3bf8f	-0.07995521
36	0x3dd4dad2	0.10393299
37	0xbeafaaf1	-0.34310105
38	0x3e716636	0.23574147
39	0xbc4aac8e	-0.012370242
40	0x3e501e91	0.2032416
41	0x3e2fa965	0.17154463
42	0x3e6da76f	0.23208402
43	0x3e91272e	0.28350204
44	0xbd154788	-0.03644517
45	0xbe9a05db	-0.30082592
46	0x3de9b1ad	0.11410842
47	0xbe9c5912	-0.30536705
48	0xbe3aa24c	-0.18225974
49	0xbd4853ca	-0.048908032
50	0x3e82befb	0.25536332
51	0xbdf04a85	-0.117329635
52	0x3d1178c7	0.035515573
53	0x3e1d6f4b	0.15374486
54	0xbddcf394	-0.10788646
55	0x3e47ce49	0.19512285
56	0xbd11fda0	-0.035642266
57	0xbc7de2fa	-0.01549601
58	0xbe882243	-0.2658864
59	0xbe6c83fc	-0.23097223
60	0xbeb44062	-0.3520537
61	0x3d9957ac	0.07487425
62	0xbe919eab	-0.28441367
63	0xbdaa6d59	-0.08321638
64	0xbe8aa493	-0.27078685
65	0xbe0d1ac7	-0.13779746
66	0x3e903f0b	0.28173098
67	0x3e78505f	0.24249409
68	0x3d40412f	0.046937164
69	0xbe8ccceb	-0.2750009
70	0xbe1de691	-0.15419985
71	0xbe3b6a82	-0.18302348
72	0xbea0d60a	-0.314133
73	0xbe85bf17	-0.26122352
74	0x3cc24696	0.023715299
75	0xbea03181	-0.31287768
76	0xbcb66a75	-0.02226756
77	0x3cd36d2d	0.025808895
78	0x3d1e62b0	0.038668334
79	0x3e96c296	0.29445332
80	0xbd9c8795	-0.07643048
81	0xbd6bd18b	-0.057572883
82	0xbe51ffdf	-0.20507763
83	0x3d7e324e	0.062059693
84	0x3e29f8d6	0.1659883
85	0x3e5acf37	0.21368109
86	0xbe8112f5	-0.25209776
87	0x3dfcdf47	0.12347274
88	0x3e8e9444	0.27847493
89	0x3ea6d0d6	0.32581204
90	0xbe8b1272	-0.2716251
91	0xbdff5590	-0.124674916
92	0xbe543437	-0.20723043
93	0xbd7ab53d	-0.061208
94	0x3dee6544	0.11640409
95	0xbe6818d8	-0.22665727
96	0x3e8dcad7	0.27693817
97	0x3e1ca896	0.15298685
98	0x3dd3bf23	0.10339191
99	0xbe9ad299	-0.30238798
100	0xbe37ca0c	-0.17948169
101	0xbde65c28	-0.11248046
102	0xbe28fd36	-0.16502842
103	0xbdac4c64	-0.08413008
104	0x3e693b26	0.2277647
105	0x3e875c63	0.26437673
106	0xbdd21657	-0.10258167
107	0x3d1f2e36	0.03886243
108	0xbe354e13	-0.17705564
109	0x3e0bd76a	0.13656393
110	0x3e81deb8	0.25365233
111	0x3e495273	0.19660358
112	0xbe0af6ca	-0.13570705
113	0xbce1041e	-0.027467784
114	0xbe005396	-0.12531886
115	0xbea289d0	-0.31745768
116	0xbe8750d6	-0.2642886
117	0xbe805129	-0.2506192
118	0xbcbf7bce	-0.023374464
119	0xbd12ae57	-0.035810795
120	0x3e6d456f	0.23171018
121	0xbe2c15d1	-0.16805197
122	0xbe03bdb4	-0.12865335
123	0x3e5f8dea	0.2183148
124	0xbe2deacb	-0.16984098
125	0x3dc3a9ba	0.09553857
126	0x3c304e53	0.010760861
127	0x3e117f72	0.14208773
128	0x3e2ce32a	0.16883531
129	0xbe3e5d76	-0.1859034
130	0xbe363be1	-0.1779628
131	0xbd694523	-0.0569507
132	0x3cf41869	0.029796796
133	0x3d44e09a	0.04806576
134	0xbd8c7e9f	-0.068600886
135	0x3e8e7919	0.27826765
136	0x3e4b0c5b	0.19828932
137	0x3ea99430	0.3312087
138	0x3e0893ab	0.13337581
139	0x3dd4100f	0.103546254
140	0xbe4af684	-0.19820601
141	0x3e3ba9eb	0.18326537
142	0xbbff95c3	-0.0077998354
143	0xbe148af0	-0.14506125
144	0xbe5e8d4b	-0.21733586
145	0x3eba0860	0.36334515
146	0xbe7a52c8	-0.24445641
147	0xbdc58e6a	-0.09646304
148	0xbdbfb070	-0.09359825
149	0xbe6bbda4	-0.23021561
150	0xbdb51dd0	-0.08843577
151	0x3e980cd9	0.29697302
152	0xbdee4ab4	-0.11635342
153	0xbe28942a	-0.1646277
154	0xbc219bda	-0.009863818
155	0xbe84c8d0	-0.25934458
156	0xbd055ff6	-0.03256222
157	0xbe989917	-0.29804298
158	0xbe5dbe63	-0.21654658
159	0x3e2a52e3	0.16633181
160	0x3cf2d272	0.029641364
161	0x3e30b969	0.17258228
162	0xbdad1d76	-0.08452885
163	0xbe16f827	-0.147431
164	0xbe7629dc	-0.24039406
165	0x3e65f2b2	0.22455862
166	0xbd14acd8	-0.03629765
167	0x3cc4ff2d	0.024047459
168	0xbe4ea781	-0.20181085
169	0xbe88d332	-0.2672363
170	0x3e08ee43	0.1337214
171	0xbe4facbd	-0.20280738
172	0xbd4aba17	-0.049493875
173	0x3e05d89c	0.13070911
174	0x3e29effe	0.16595456
175	0x3e7f7fd0	0.249511
176	0x3d95af67	0.07308846
177	0x3e8cae49	0.2747672
178	0x3df12206	0.117740676
179	0x3e77ce8a	0.24199882
180	0x3d57598f	0.052575644
181	0xbd7cf621	-0.061758164
182	0xbea5e3c7	-0.32400343
183	0xbd9ae118	-0.075624645
184	0x3de7f4e5	0.11326007
185	0xbe71e446	-0.23622236
186	0x3e6e5ef2	0.23278406
187	0xbe81b1ff	-0.25331113
188	0x3c892bfb	0.016744604
189	0xbe9255c7	-0.28581068
190	0x3dffc110	0.124879956
191	0x399c8b8d	0.00029858612

StatefulPartitionedCall/sequential_1/dense_3/MatMul_bias f4 [3]
0	0xbd0df772	-0.03465981
1	0xb9c3ebb1	-0.00037368902
2	0x3d1bd971	0.038049165
